…
path='', throughout=False, train_interpolation='bicubic', train_mode=True, unscale_lr=True, use_fp32=False, warmup_epochs=5, warmup_lr=1e-06, weight_decay=0.05, world_size=4)
commit id :279115e72f46fe624c27e20506fe65ed33fd8ea0
Creating model: vit_llama_rope_small_patch16
rpe flags:  [True, True, True, True, True, True, True, True, True, True, True, True]
rpe_ratio : 1.0
rpe_ratio : 1.0
rpe_ratio : 1.0
rpe_ratio : 1.0
rpe_ratio : 1.0
rpe_ratio : 1.0
rpe_ratio : 1.0
rpe_ratio : 1.0
rpe_ratio : 1.0
rpe_ratio : 1.0
rpe_ratio : 1.0
rpe_ratio : 1.0
VisionLLaMA(
  (patch_embed): PatchEmbed(
    (proj): Conv2d(3, 384, kernel_size=(16, 16), stride=(16, 16))
  )
  (pos_drop): Dropout(p=0.0, inplace=False)
  (norm): LayerNorm((384,), eps=1e-06, elementwise_affine=True)
  (head): Linear(in_features=384, out_features=1000, bias=True)
  (blocks): ModuleList(
    (0): LAMABlock(
      (norm1): LayerNorm((384,), eps=1e-06, elementwise_affine=True)
      (drop_path): DropPath()
      (norm2): LayerNorm((384,), eps=1e-06, elementwise_affine=True)
      (attn): RAttention(
        (qkv): Linear(in_features=384, out_features=1152, bias=True)
        (attn_drop): Dropout(p=0.0, inplace=False)
        (proj): Linear(in_features=384, out_features=384, bias=True)
        (proj_drop): Dropout(p=0.0, inplace=False)
      )
      (mlp): LLaMAMLP(
        (c_fc1): Linear(in_features=384, out_features=1024, bias=False)
        (c_fc2): Linear(in_features=384, out_features=1024, bias=False)
        (c_proj): Linear(in_features=1024, out_features=384, bias=False)
      )
    )
    (1): LAMABlock(
      (norm1): LayerNorm((384,), eps=1e-06, elementwise_affine=True)
      (drop_path): DropPath()
      (norm2): LayerNorm((384,), eps=1e-06, elementwise_affine=True)
      (attn): RAttention(
        (qkv): Linear(in_features=384, out_features=1152, bias=True)
        (attn_drop): Dropout(p=0.0, inplace=False)
        (proj): Linear(in_features=384, out_features=384, bias=True)
        (proj_drop): Dropout(p=0.0, inplace=False)
      )
      (mlp): LLaMAMLP(
        (c_fc1): Linear(in_features=384, out_features=1024, bias=False)
        (c_fc2): Linear(in_features=384, out_features=1024, bias=False)
        (c_proj): Linear(in_features=1024, out_features=384, bias=False)
      )
    )
    (2): LAMABlock(
      (norm1): LayerNorm((384,), eps=1e-06, elementwise_affine=True)
      (drop_path): DropPath()
      (norm2): LayerNorm((384,), eps=1e-06, elementwise_affine=True)
      (attn): RAttention(
        (qkv): Linear(in_features=384, out_features=1152, bias=True)
        (attn_drop): Dropout(p=0.0, inplace=False)
        (proj): Linear(in_features=384, out_features=384, bias=True)
        (proj_drop): Dropout(p=0.0, inplace=False)
      )
      (mlp): LLaMAMLP(
        (c_fc1): Linear(in_features=384, out_features=1024, bias=False)
        (c_fc2): Linear(in_features=384, out_features=1024, bias=False)
        (c_proj): Linear(in_features=1024, out_features=384, bias=False)
      )
    )
    (3): LAMABlock(
      (norm1): LayerNorm((384,), eps=1e-06, elementwise_affine=True)
      (drop_path): DropPath()
      (norm2): LayerNorm((384,), eps=1e-06, elementwise_affine=True)
      (attn): RAttention(
        (qkv): Linear(in_features=384, out_features=1152, bias=True)
        (attn_drop): Dropout(p=0.0, inplace=False)
        (proj): Linear(in_features=384, out_features=384, bias=True)
        (proj_drop): Dropout(p=0.0, inplace=False)
      )
      (mlp): LLaMAMLP(
        (c_fc1): Linear(in_features=384, out_features=1024, bias=False)
        (c_fc2): Linear(in_features=384, out_features=1024, bias=False)
        (c_proj): Linear(in_features=1024, out_features=384, bias=False)
      )
    )
    (4): LAMABlock(
      (norm1): LayerNorm((384,), eps=1e-06, elementwise_affine=True)
      (drop_path): DropPath()
      (norm2): LayerNorm((384,), eps=1e-06, elementwise_affine=True)
      (attn): RAttention(
        (qkv): Linear(in_features=384, out_features=1152, bias=True)
        (attn_drop): Dropout(p=0.0, inplace=False)
        (proj): Linear(in_features=384, out_features=384, bias=True)
        (proj_drop): Dropout(p=0.0, inplace=False)
      )
      (mlp): LLaMAMLP(
        (c_fc1): Linear(in_features=384, out_features=1024, bias=False)
        (c_fc2): Linear(in_features=384, out_features=1024, bias=False)
        (c_proj): Linear(in_features=1024, out_features=384, bias=False)
      )
    )
    (5): LAMABlock(
      (norm1): LayerNorm((384,), eps=1e-06, elementwise_affine=True)
      (drop_path): DropPath()
      (norm2): LayerNorm((384,), eps=1e-06, elementwise_affine=True)
      (attn): RAttention(
        (qkv): Linear(in_features=384, out_features=1152, bias=True)
        (attn_drop): Dropout(p=0.0, inplace=False)
        (proj): Linear(in_features=384, out_features=384, bias=True)
        (proj_drop): Dropout(p=0.0, inplace=False)
      )
      (mlp): LLaMAMLP(
        (c_fc1): Linear(in_features=384, out_features=1024, bias=False)
        (c_fc2): Linear(in_features=384, out_features=1024, bias=False)
        (c_proj): Linear(in_features=1024, out_features=384, bias=False)
      )
    )
    (6): LAMABlock(
      (norm1): LayerNorm((384,), eps=1e-06, elementwise_affine=True)
      (drop_path): DropPath()
      (norm2): LayerNorm((384,), eps=1e-06, elementwise_affine=True)
      (attn): RAttention(
        (qkv): Linear(in_features=384, out_features=1152, bias=True)
        (attn_drop): Dropout(p=0.0, inplace=False)
        (proj): Linear(in_features=384, out_features=384, bias=True)
        (proj_drop): Dropout(p=0.0, inplace=False)
      )
      (mlp): LLaMAMLP(
        (c_fc1): Linear(in_features=384, out_features=1024, bias=False)
        (c_fc2): Linear(in_features=384, out_features=1024, bias=False)
        (c_proj): Linear(in_features=1024, out_features=384, bias=False)
      )
    )
    (7): LAMABlock(
      (norm1): LayerNorm((384,), eps=1e-06, elementwise_affine=True)
      (drop_path): DropPath()
      (norm2): LayerNorm((384,), eps=1e-06, elementwise_affine=True)
      (attn): RAttention(
        (qkv): Linear(in_features=384, out_features=1152, bias=True)
        (attn_drop): Dropout(p=0.0, inplace=False)
        (proj): Linear(in_features=384, out_features=384, bias=True)
        (proj_drop): Dropout(p=0.0, inplace=False)
      )
      (mlp): LLaMAMLP(
        (c_fc1): Linear(in_features=384, out_features=1024, bias=False)
        (c_fc2): Linear(in_features=384, out_features=1024, bias=False)
        (c_proj): Linear(in_features=1024, out_features=384, bias=False)
      )
    )
    (8): LAMABlock(
      (norm1): LayerNorm((384,), eps=1e-06, elementwise_affine=True)
      (drop_path): DropPath()
      (norm2): LayerNorm((384,), eps=1e-06, elementwise_affine=True)
      (attn): RAttention(
        (qkv): Linear(in_features=384, out_features=1152, bias=True)
        (attn_drop): Dropout(p=0.0, inplace=False)
        (proj): Linear(in_features=384, out_features=384, bias=True)
        (proj_drop): Dropout(p=0.0, inplace=False)
      )
      (mlp): LLaMAMLP(
        (c_fc1): Linear(in_features=384, out_features=1024, bias=False)
        (c_fc2): Linear(in_features=384, out_features=1024, bias=False)
        (c_proj): Linear(in_features=1024, out_features=384, bias=False)
      )
    )
    (9): LAMABlock(
      (norm1): LayerNorm((384,), eps=1e-06, elementwise_affine=True)
      (drop_path): DropPath()
      (norm2): LayerNorm((384,), eps=1e-06, elementwise_affine=True)
      (attn): RAttention(
        (qkv): Linear(in_features=384, out_features=1152, bias=True)
        (attn_drop): Dropout(p=0.0, inplace=False)
        (proj): Linear(in_features=384, out_features=384, bias=True)
        (proj_drop): Dropout(p=0.0, inplace=False)
      )
      (mlp): LLaMAMLP(
        (c_fc1): Linear(in_features=384, out_features=1024, bias=False)
        (c_fc2): Linear(in_features=384, out_features=1024, bias=False)
        (c_proj): Linear(in_features=1024, out_features=384, bias=False)
      )
    )
    (10): LAMABlock(
      (norm1): LayerNorm((384,), eps=1e-06, elementwise_affine=True)
      (drop_path): DropPath()
      (norm2): LayerNorm((384,), eps=1e-06, elementwise_affine=True)
      (attn): RAttention(
        (qkv): Linear(in_features=384, out_features=1152, bias=True)
        (attn_drop): Dropout(p=0.0, inplace=False)
        (proj): Linear(in_features=384, out_features=384, bias=True)
        (proj_drop): Dropout(p=0.0, inplace=False)
      )
      (mlp): LLaMAMLP(
        (c_fc1): Linear(in_features=384, out_features=1024, bias=False)
        (c_fc2): Linear(in_features=384, out_features=1024, bias=False)
        (c_proj): Linear(in_features=1024, out_features=384, bias=False)
      )
    )
    (11): LAMABlock(
      (norm1): LayerNorm((384,), eps=1e-06, elementwise_affine=True)
      (drop_path): DropPath()
      (norm2): LayerNorm((384,), eps=1e-06, elementwise_affine=True)
      (attn): RAttention(
        (qkv): Linear(in_features=384, out_features=1152, bias=True)
        (attn_drop): Dropout(p=0.0, inplace=False)
        (proj): Linear(in_features=384, out_features=384, bias=True)
        (proj_drop): Dropout(p=0.0, inplace=False)
      )
      (mlp): LLaMAMLP(
        (c_fc1): Linear(in_features=384, out_features=1024, bias=False)
        (c_fc2): Linear(in_features=384, out_features=1024, bias=False)
        (c_proj): Linear(in_features=1024, out_features=384, bias=False)
      )
    )
  )
)
number of params: 21961192
model configure: VisionLLaMA(
  (patch_embed): PatchEmbed(
    (proj): Conv2d(3, 384, kernel_size=(16, 16), stride=(16, 16))
  )
  (pos_drop): Dropout(p=0.0, inplace=False)
  (norm): LayerNorm((384,), eps=1e-06, elementwise_affine=True)
  (head): Linear(in_features=384, out_features=1000, bias=True)
  (blocks): ModuleList(
    (0): LAMABlock(
      (norm1): LayerNorm((384,), eps=1e-06, elementwise_affine=True)
      (drop_path): DropPath()
      (norm2): LayerNorm((384,), eps=1e-06, elementwise_affine=True)
      (attn): RAttention(
        (qkv): Linear(in_features=384, out_features=1152, bias=True)
        (attn_drop): Dropout(p=0.0, inplace=False)
        (proj): Linear(in_features=384, out_features=384, bias=True)
        (proj_drop): Dropout(p=0.0, inplace=False)
      )
      (mlp): LLaMAMLP(
        (c_fc1): Linear(in_features=384, out_features=1024, bias=False)
        (c_fc2): Linear(in_features=384, out_features=1024, bias=False)
        (c_proj): Linear(in_features=1024, out_features=384, bias=False)
      )
    )
    (1): LAMABlock(
      (norm1): LayerNorm((384,), eps=1e-06, elementwise_affine=True)
      (drop_path): DropPath()
      (norm2): LayerNorm((384,), eps=1e-06, elementwise_affine=True)
      (attn): RAttention(
        (qkv): Linear(in_features=384, out_features=1152, bias=True)
        (attn_drop): Dropout(p=0.0, inplace=False)
        (proj): Linear(in_features=384, out_features=384, bias=True)
        (proj_drop): Dropout(p=0.0, inplace=False)
      )
      (mlp): LLaMAMLP(
        (c_fc1): Linear(in_features=384, out_features=1024, bias=False)
        (c_fc2): Linear(in_features=384, out_features=1024, bias=False)
        (c_proj): Linear(in_features=1024, out_features=384, bias=False)
      )
    )
    (2): LAMABlock(
      (norm1): LayerNorm((384,), eps=1e-06, elementwise_affine=True)
      (drop_path): DropPath()
      (norm2): LayerNorm((384,), eps=1e-06, elementwise_affine=True)
      (attn): RAttention(
        (qkv): Linear(in_features=384, out_features=1152, bias=True)
        (attn_drop): Dropout(p=0.0, inplace=False)
        (proj): Linear(in_features=384, out_features=384, bias=True)
        (proj_drop): Dropout(p=0.0, inplace=False)
      )
      (mlp): LLaMAMLP(
        (c_fc1): Linear(in_features=384, out_features=1024, bias=False)
        (c_fc2): Linear(in_features=384, out_features=1024, bias=False)
        (c_proj): Linear(in_features=1024, out_features=384, bias=False)
      )
    )
    (3): LAMABlock(
      (norm1): LayerNorm((384,), eps=1e-06, elementwise_affine=True)
      (drop_path): DropPath()
      (norm2): LayerNorm((384,), eps=1e-06, elementwise_affine=True)
      (attn): RAttention(
        (qkv): Linear(in_features=384, out_features=1152, bias=True)
        (attn_drop): Dropout(p=0.0, inplace=False)
        (proj): Linear(in_features=384, out_features=384, bias=True)
        (proj_drop): Dropout(p=0.0, inplace=False)
      )
      (mlp): LLaMAMLP(
        (c_fc1): Linear(in_features=384, out_features=1024, bias=False)
        (c_fc2): Linear(in_features=384, out_features=1024, bias=False)
        (c_proj): Linear(in_features=1024, out_features=384, bias=False)
      )
    )
    (4): LAMABlock(
      (norm1): LayerNorm((384,), eps=1e-06, elementwise_affine=True)
      (drop_path): DropPath()
      (norm2): LayerNorm((384,), eps=1e-06, elementwise_affine=True)
      (attn): RAttention(
        (qkv): Linear(in_features=384, out_features=1152, bias=True)
        (attn_drop): Dropout(p=0.0, inplace=False)
        (proj): Linear(in_features=384, out_features=384, bias=True)
        (proj_drop): Dropout(p=0.0, inplace=False)
      )
      (mlp): LLaMAMLP(
        (c_fc1): Linear(in_features=384, out_features=1024, bias=False)
        (c_fc2): Linear(in_features=384, out_features=1024, bias=False)
        (c_proj): Linear(in_features=1024, out_features=384, bias=False)
      )
    )
    (5): LAMABlock(
      (norm1): LayerNorm((384,), eps=1e-06, elementwise_affine=True)
      (drop_path): DropPath()
      (norm2): LayerNorm((384,), eps=1e-06, elementwise_affine=True)
      (attn): RAttention(
        (qkv): Linear(in_features=384, out_features=1152, bias=True)
        (attn_drop): Dropout(p=0.0, inplace=False)
        (proj): Linear(in_features=384, out_features=384, bias=True)
        (proj_drop): Dropout(p=0.0, inplace=False)
      )
      (mlp): LLaMAMLP(
        (c_fc1): Linear(in_features=384, out_features=1024, bias=False)
        (c_fc2): Linear(in_features=384, out_features=1024, bias=False)
        (c_proj): Linear(in_features=1024, out_features=384, bias=False)
      )
    )
    (6): LAMABlock(
      (norm1): LayerNorm((384,), eps=1e-06, elementwise_affine=True)
      (drop_path): DropPath()
      (norm2): LayerNorm((384,), eps=1e-06, elementwise_affine=True)
      (attn): RAttention(
        (qkv): Linear(in_features=384, out_features=1152, bias=True)
        (attn_drop): Dropout(p=0.0, inplace=False)
        (proj): Linear(in_features=384, out_features=384, bias=True)
        (proj_drop): Dropout(p=0.0, inplace=False)
      )
      (mlp): LLaMAMLP(
        (c_fc1): Linear(in_features=384, out_features=1024, bias=False)
        (c_fc2): Linear(in_features=384, out_features=1024, bias=False)
        (c_proj): Linear(in_features=1024, out_features=384, bias=False)
      )
    )
    (7): LAMABlock(
      (norm1): LayerNorm((384,), eps=1e-06, elementwise_affine=True)
      (drop_path): DropPath()
      (norm2): LayerNorm((384,), eps=1e-06, elementwise_affine=True)
      (attn): RAttention(
        (qkv): Linear(in_features=384, out_features=1152, bias=True)
        (attn_drop): Dropout(p=0.0, inplace=False)
        (proj): Linear(in_features=384, out_features=384, bias=True)
        (proj_drop): Dropout(p=0.0, inplace=False)
      )
      (mlp): LLaMAMLP(
        (c_fc1): Linear(in_features=384, out_features=1024, bias=False)
        (c_fc2): Linear(in_features=384, out_features=1024, bias=False)
        (c_proj): Linear(in_features=1024, out_features=384, bias=False)
      )
    )
    (8): LAMABlock(
      (norm1): LayerNorm((384,), eps=1e-06, elementwise_affine=True)
      (drop_path): DropPath()
      (norm2): LayerNorm((384,), eps=1e-06, elementwise_affine=True)
      (attn): RAttention(
        (qkv): Linear(in_features=384, out_features=1152, bias=True)
        (attn_drop): Dropout(p=0.0, inplace=False)
        (proj): Linear(in_features=384, out_features=384, bias=True)
        (proj_drop): Dropout(p=0.0, inplace=False)
      )
      (mlp): LLaMAMLP(
        (c_fc1): Linear(in_features=384, out_features=1024, bias=False)
        (c_fc2): Linear(in_features=384, out_features=1024, bias=False)
        (c_proj): Linear(in_features=1024, out_features=384, bias=False)
      )
    )
    (9): LAMABlock(
      (norm1): LayerNorm((384,), eps=1e-06, elementwise_affine=True)
      (drop_path): DropPath()
      (norm2): LayerNorm((384,), eps=1e-06, elementwise_affine=True)
      (attn): RAttention(
        (qkv): Linear(in_features=384, out_features=1152, bias=True)
        (attn_drop): Dropout(p=0.0, inplace=False)
        (proj): Linear(in_features=384, out_features=384, bias=True)
        (proj_drop): Dropout(p=0.0, inplace=False)
      )
      (mlp): LLaMAMLP(
        (c_fc1): Linear(in_features=384, out_features=1024, bias=False)
        (c_fc2): Linear(in_features=384, out_features=1024, bias=False)
        (c_proj): Linear(in_features=1024, out_features=384, bias=False)
      )
    )
    (10): LAMABlock(
      (norm1): LayerNorm((384,), eps=1e-06, elementwise_affine=True)
      (drop_path): DropPath()
      (norm2): LayerNorm((384,), eps=1e-06, elementwise_affine=True)
      (attn): RAttention(
        (qkv): Linear(in_features=384, out_features=1152, bias=True)
        (attn_drop): Dropout(p=0.0, inplace=False)
        (proj): Linear(in_features=384, out_features=384, bias=True)
        (proj_drop): Dropout(p=0.0, inplace=False)
      )
      (mlp): LLaMAMLP(
        (c_fc1): Linear(in_features=384, out_features=1024, bias=False)
        (c_fc2): Linear(in_features=384, out_features=1024, bias=False)
        (c_proj): Linear(in_features=1024, out_features=384, bias=False)
      )
    )
    (11): LAMABlock(
      (norm1): LayerNorm((384,), eps=1e-06, elementwise_affine=True)
      (drop_path): DropPath()
      (norm2): LayerNorm((384,), eps=1e-06, elementwise_affine=True)
      (attn): RAttention(
        (qkv): Linear(in_features=384, out_features=1152, bias=True)
        (attn_drop): Dropout(p=0.0, inplace=False)
        (proj): Linear(in_features=384, out_features=384, bias=True)
        (proj_drop): Dropout(p=0.0, inplace=False)
      )
      (mlp): LLaMAMLP(
        (c_fc1): Linear(in_features=384, out_features=1024, bias=False)
        (c_fc2): Linear(in_features=384, out_features=1024, bias=False)
        (c_proj): Linear(in_features=1024, out_features=384, bias=False)
      )
    )
  )
)
Start training for 800 epochs
Epoch: [0]  [   0/1251]  eta: 3:02:31  lr: 0.000001  loss: 0.7081 (0.7081)  time: 8.7540  data: 7.2325  max mem: 16791
Epoch: [0]  [  10/1251]  eta: 0:29:03  lr: 0.000001  loss: 0.7073 (0.7073)  time: 1.4048  data: 0.6580  max mem: 17040
Epoch: [0]  [  20/1251]  eta: 0:20:42  lr: 0.000001  loss: 0.7063 (0.7065)  time: 0.6221  data: 0.0005  max mem: 17040
…
