…
Unsupported operator aten::rand encountered 34 time(s)
Unsupported operator aten::floor_ encountered 34 time(s)
Unsupported operator aten::mean encountered 1 time(s)
The following submodules of the model were never called during the trace of the graph. They may be unused, or they were accessed by direct calls to .forward() or via other python methods. In the latter case they will have zeros for statistics, though their statistics will still contribute to their parent calling module.
pos_drop
model flops: 3323.730624 M
number of params: 25903976
model configure PyramidVisionLLaMA(
  (pos_drop): Dropout(p=0.0, inplace=False)
  (norm): LayerNorm((512,), eps=1e-05, elementwise_affine=True)
  (head): Linear(in_features=512, out_features=1000, bias=True)
  (blocks): ModuleList(
    (0): ModuleList(
      (0): GroupBlock(
        (norm1): LayerNorm((64,), eps=1e-05, elementwise_affine=True)
        (drop_path): Identity()
        (norm2): LayerNorm((64,), eps=1e-05, elementwise_affine=True)
        (mlp): LLaMAMLP(
          (c_fc1): Linear(in_features=64, out_features=256, bias=False)
          (c_fc2): Linear(in_features=64, out_features=256, bias=False)
          (c_proj): Linear(in_features=256, out_features=64, bias=False)
        )
        (attn): GroupAttention(
          (qkv): Linear(in_features=64, out_features=192, bias=True)
          (attn_drop): Dropout(p=0.0, inplace=False)
          (proj): Linear(in_features=64, out_features=64, bias=True)
          (proj_drop): Dropout(p=0.0, inplace=False)
        )
      )
      (1): GroupBlock(
        (norm1): LayerNorm((64,), eps=1e-05, elementwise_affine=True)
        (drop_path): DropPath()
        (norm2): LayerNorm((64,), eps=1e-05, elementwise_affine=True)
        (mlp): LLaMAMLP(
          (c_fc1): Linear(in_features=64, out_features=256, bias=False)
          (c_fc2): Linear(in_features=64, out_features=256, bias=False)
          (c_proj): Linear(in_features=256, out_features=64, bias=False)
        )
        (attn): GSAttention(
          (q): Linear(in_features=64, out_features=64, bias=True)
          (kv): Linear(in_features=64, out_features=128, bias=True)
          (attn_drop): Dropout(p=0.0, inplace=False)
          (proj): Linear(in_features=64, out_features=64, bias=True)
          (proj_drop): Dropout(p=0.0, inplace=False)
          (sr): Conv2d(64, 64, kernel_size=(8, 8), stride=(8, 8))
          (norm): LayerNorm((64,), eps=1e-05, elementwise_affine=True)
        )
      )
    )
    (1): ModuleList(
      (0): GroupBlock(
        (norm1): LayerNorm((128,), eps=1e-05, elementwise_affine=True)
        (drop_path): DropPath()
        (norm2): LayerNorm((128,), eps=1e-05, elementwise_affine=True)
        (mlp): LLaMAMLP(
          (c_fc1): Linear(in_features=128, out_features=512, bias=False)
          (c_fc2): Linear(in_features=128, out_features=512, bias=False)
          (c_proj): Linear(in_features=512, out_features=128, bias=False)
        )
        (attn): GroupAttention(
          (qkv): Linear(in_features=128, out_features=384, bias=True)
          (attn_drop): Dropout(p=0.0, inplace=False)
          (proj): Linear(in_features=128, out_features=128, bias=True)
          (proj_drop): Dropout(p=0.0, inplace=False)
        )
      )
      (1): GroupBlock(
        (norm1): LayerNorm((128,), eps=1e-05, elementwise_affine=True)
        (drop_path): DropPath()
        (norm2): LayerNorm((128,), eps=1e-05, elementwise_affine=True)
        (mlp): LLaMAMLP(
          (c_fc1): Linear(in_features=128, out_features=512, bias=False)
          (c_fc2): Linear(in_features=128, out_features=512, bias=False)
          (c_proj): Linear(in_features=512, out_features=128, bias=False)
        )
        (attn): GSAttention(
          (q): Linear(in_features=128, out_features=128, bias=True)
          (kv): Linear(in_features=128, out_features=256, bias=True)
          (attn_drop): Dropout(p=0.0, inplace=False)
          (proj): Linear(in_features=128, out_features=128, bias=True)
          (proj_drop): Dropout(p=0.0, inplace=False)
          (sr): Conv2d(128, 128, kernel_size=(4, 4), stride=(4, 4))
          (norm): LayerNorm((128,), eps=1e-05, elementwise_affine=True)
        )
      )
    )
    (2): ModuleList(
      (0): GroupBlock(
        (norm1): LayerNorm((256,), eps=1e-05, elementwise_affine=True)
        (drop_path): DropPath()
        (norm2): LayerNorm((256,), eps=1e-05, elementwise_affine=True)
        (mlp): LLaMAMLP(
          (c_fc1): Linear(in_features=256, out_features=768, bias=False)
          (c_fc2): Linear(in_features=256, out_features=768, bias=False)
          (c_proj): Linear(in_features=768, out_features=256, bias=False)
        )
        (attn): GroupAttention(
          (qkv): Linear(in_features=256, out_features=768, bias=True)
          (attn_drop): Dropout(p=0.0, inplace=False)
          (proj): Linear(in_features=256, out_features=256, bias=True)
          (proj_drop): Dropout(p=0.0, inplace=False)
        )
      )
      (1): GroupBlock(
        (norm1): LayerNorm((256,), eps=1e-05, elementwise_affine=True)
        (drop_path): DropPath()
        (norm2): LayerNorm((256,), eps=1e-05, elementwise_affine=True)
        (mlp): LLaMAMLP(
          (c_fc1): Linear(in_features=256, out_features=768, bias=False)
          (c_fc2): Linear(in_features=256, out_features=768, bias=False)
          (c_proj): Linear(in_features=768, out_features=256, bias=False)
        )
        (attn): GSAttention(
          (q): Linear(in_features=256, out_features=256, bias=True)
          (kv): Linear(in_features=256, out_features=512, bias=True)
          (attn_drop): Dropout(p=0.0, inplace=False)
          (proj): Linear(in_features=256, out_features=256, bias=True)
          (proj_drop): Dropout(p=0.0, inplace=False)
          (sr): Conv2d(256, 256, kernel_size=(2, 2), stride=(2, 2))
          (norm): LayerNorm((256,), eps=1e-05, elementwise_affine=True)
        )
      )
      (2): GroupBlock(
        (norm1): LayerNorm((256,), eps=1e-05, elementwise_affine=True)
        (drop_path): DropPath()
        (norm2): LayerNorm((256,), eps=1e-05, elementwise_affine=True)
        (mlp): LLaMAMLP(
          (c_fc1): Linear(in_features=256, out_features=768, bias=False)
          (c_fc2): Linear(in_features=256, out_features=768, bias=False)
          (c_proj): Linear(in_features=768, out_features=256, bias=False)
        )
        (attn): GroupAttention(
          (qkv): Linear(in_features=256, out_features=768, bias=True)
          (attn_drop): Dropout(p=0.0, inplace=False)
          (proj): Linear(in_features=256, out_features=256, bias=True)
          (proj_drop): Dropout(p=0.0, inplace=False)
        )
      )
      (3): GroupBlock(
        (norm1): LayerNorm((256,), eps=1e-05, elementwise_affine=True)
        (drop_path): DropPath()
        (norm2): LayerNorm((256,), eps=1e-05, elementwise_affine=True)
        (mlp): LLaMAMLP(
          (c_fc1): Linear(in_features=256, out_features=768, bias=False)
          (c_fc2): Linear(in_features=256, out_features=768, bias=False)
          (c_proj): Linear(in_features=768, out_features=256, bias=False)
        )
        (attn): GSAttention(
          (q): Linear(in_features=256, out_features=256, bias=True)
          (kv): Linear(in_features=256, out_features=512, bias=True)
          (attn_drop): Dropout(p=0.0, inplace=False)
          (proj): Linear(in_features=256, out_features=256, bias=True)
          (proj_drop): Dropout(p=0.0, inplace=False)
          (sr): Conv2d(256, 256, kernel_size=(2, 2), stride=(2, 2))
          (norm): LayerNorm((256,), eps=1e-05, elementwise_affine=True)
        )
      )
      (4): GroupBlock(
        (norm1): LayerNorm((256,), eps=1e-05, elementwise_affine=True)
        (drop_path): DropPath()
        (norm2): LayerNorm((256,), eps=1e-05, elementwise_affine=True)
        (mlp): LLaMAMLP(
          (c_fc1): Linear(in_features=256, out_features=768, bias=False)
          (c_fc2): Linear(in_features=256, out_features=768, bias=False)
          (c_proj): Linear(in_features=768, out_features=256, bias=False)
        )
        (attn): GroupAttention(
          (qkv): Linear(in_features=256, out_features=768, bias=True)
          (attn_drop): Dropout(p=0.0, inplace=False)
          (proj): Linear(in_features=256, out_features=256, bias=True)
          (proj_drop): Dropout(p=0.0, inplace=False)
        )
      )
      (5): GroupBlock(
        (norm1): LayerNorm((256,), eps=1e-05, elementwise_affine=True)
        (drop_path): DropPath()
        (norm2): LayerNorm((256,), eps=1e-05, elementwise_affine=True)
        (mlp): LLaMAMLP(
          (c_fc1): Linear(in_features=256, out_features=768, bias=False)
          (c_fc2): Linear(in_features=256, out_features=768, bias=False)
          (c_proj): Linear(in_features=768, out_features=256, bias=False)
        )
        (attn): GSAttention(
          (q): Linear(in_features=256, out_features=256, bias=True)
          (kv): Linear(in_features=256, out_features=512, bias=True)
          (attn_drop): Dropout(p=0.0, inplace=False)
          (proj): Linear(in_features=256, out_features=256, bias=True)
          (proj_drop): Dropout(p=0.0, inplace=False)
          (sr): Conv2d(256, 256, kernel_size=(2, 2), stride=(2, 2))
          (norm): LayerNorm((256,), eps=1e-05, elementwise_affine=True)
        )
      )
      (6): GroupBlock(
        (norm1): LayerNorm((256,), eps=1e-05, elementwise_affine=True)
        (drop_path): DropPath()
        (norm2): LayerNorm((256,), eps=1e-05, elementwise_affine=True)
        (mlp): LLaMAMLP(
          (c_fc1): Linear(in_features=256, out_features=768, bias=False)
          (c_fc2): Linear(in_features=256, out_features=768, bias=False)
          (c_proj): Linear(in_features=768, out_features=256, bias=False)
        )
        (attn): GroupAttention(
          (qkv): Linear(in_features=256, out_features=768, bias=True)
          (attn_drop): Dropout(p=0.0, inplace=False)
          (proj): Linear(in_features=256, out_features=256, bias=True)
          (proj_drop): Dropout(p=0.0, inplace=False)
        )
      )
      (7): GroupBlock(
        (norm1): LayerNorm((256,), eps=1e-05, elementwise_affine=True)
        (drop_path): DropPath()
        (norm2): LayerNorm((256,), eps=1e-05, elementwise_affine=True)
        (mlp): LLaMAMLP(
          (c_fc1): Linear(in_features=256, out_features=768, bias=False)
          (c_fc2): Linear(in_features=256, out_features=768, bias=False)
          (c_proj): Linear(in_features=768, out_features=256, bias=False)
        )
        (attn): GSAttention(
          (q): Linear(in_features=256, out_features=256, bias=True)
          (kv): Linear(in_features=256, out_features=512, bias=True)
          (attn_drop): Dropout(p=0.0, inplace=False)
          (proj): Linear(in_features=256, out_features=256, bias=True)
          (proj_drop): Dropout(p=0.0, inplace=False)
          (sr): Conv2d(256, 256, kernel_size=(2, 2), stride=(2, 2))
          (norm): LayerNorm((256,), eps=1e-05, elementwise_affine=True)
        )
      )
      (8): GroupBlock(
        (norm1): LayerNorm((256,), eps=1e-05, elementwise_affine=True)
        (drop_path): DropPath()
        (norm2): LayerNorm((256,), eps=1e-05, elementwise_affine=True)
        (mlp): LLaMAMLP(
          (c_fc1): Linear(in_features=256, out_features=768, bias=False)
          (c_fc2): Linear(in_features=256, out_features=768, bias=False)
          (c_proj): Linear(in_features=768, out_features=256, bias=False)
        )
        (attn): GroupAttention(
          (qkv): Linear(in_features=256, out_features=768, bias=True)
          (attn_drop): Dropout(p=0.0, inplace=False)
          (proj): Linear(in_features=256, out_features=256, bias=True)
          (proj_drop): Dropout(p=0.0, inplace=False)
        )
      )
      (9): GroupBlock(
        (norm1): LayerNorm((256,), eps=1e-05, elementwise_affine=True)
        (drop_path): DropPath()
        (norm2): LayerNorm((256,), eps=1e-05, elementwise_affine=True)
        (mlp): LLaMAMLP(
          (c_fc1): Linear(in_features=256, out_features=768, bias=False)
          (c_fc2): Linear(in_features=256, out_features=768, bias=False)
          (c_proj): Linear(in_features=768, out_features=256, bias=False)
        )
        (attn): GSAttention(
          (q): Linear(in_features=256, out_features=256, bias=True)
          (kv): Linear(in_features=256, out_features=512, bias=True)
          (attn_drop): Dropout(p=0.0, inplace=False)
          (proj): Linear(in_features=256, out_features=256, bias=True)
          (proj_drop): Dropout(p=0.0, inplace=False)
          (sr): Conv2d(256, 256, kernel_size=(2, 2), stride=(2, 2))
          (norm): LayerNorm((256,), eps=1e-05, elementwise_affine=True)
        )
      )
    )
    (3): ModuleList(
      (0): GroupBlock(
        (norm1): LayerNorm((512,), eps=1e-05, elementwise_affine=True)
        (drop_path): DropPath()
        (norm2): LayerNorm((512,), eps=1e-05, elementwise_affine=True)
        (mlp): LLaMAMLP(
          (c_fc1): Linear(in_features=512, out_features=1536, bias=False)
          (c_fc2): Linear(in_features=512, out_features=1536, bias=False)
          (c_proj): Linear(in_features=1536, out_features=512, bias=False)
        )
        (attn): GroupAttention(
          (qkv): Linear(in_features=512, out_features=1536, bias=True)
          (attn_drop): Dropout(p=0.0, inplace=False)
          (proj): Linear(in_features=512, out_features=512, bias=True)
          (proj_drop): Dropout(p=0.0, inplace=False)
        )
      )
      (1): GroupBlock(
        (norm1): LayerNorm((512,), eps=1e-05, elementwise_affine=True)
        (drop_path): DropPath()
        (norm2): LayerNorm((512,), eps=1e-05, elementwise_affine=True)
        (mlp): LLaMAMLP(
          (c_fc1): Linear(in_features=512, out_features=1536, bias=False)
          (c_fc2): Linear(in_features=512, out_features=1536, bias=False)
          (c_proj): Linear(in_features=1536, out_features=512, bias=False)
        )
        (attn): GSAttention(
          (q): Linear(in_features=512, out_features=512, bias=True)
          (kv): Linear(in_features=512, out_features=1024, bias=True)
          (attn_drop): Dropout(p=0.0, inplace=False)
          (proj): Linear(in_features=512, out_features=512, bias=True)
          (proj_drop): Dropout(p=0.0, inplace=False)
        )
      )
      (2): GroupBlock(
        (norm1): LayerNorm((512,), eps=1e-05, elementwise_affine=True)
        (drop_path): DropPath()
        (norm2): LayerNorm((512,), eps=1e-05, elementwise_affine=True)
        (mlp): LLaMAMLP(
          (c_fc1): Linear(in_features=512, out_features=1536, bias=False)
          (c_fc2): Linear(in_features=512, out_features=1536, bias=False)
          (c_proj): Linear(in_features=1536, out_features=512, bias=False)
        )
        (attn): GroupAttention(
          (qkv): Linear(in_features=512, out_features=1536, bias=True)
          (attn_drop): Dropout(p=0.0, inplace=False)
          (proj): Linear(in_features=512, out_features=512, bias=True)
          (proj_drop): Dropout(p=0.0, inplace=False)
        )
      )
      (3): GroupBlock(
        (norm1): LayerNorm((512,), eps=1e-05, elementwise_affine=True)
        (drop_path): DropPath()
        (norm2): LayerNorm((512,), eps=1e-05, elementwise_affine=True)
        (mlp): LLaMAMLP(
          (c_fc1): Linear(in_features=512, out_features=1536, bias=False)
          (c_fc2): Linear(in_features=512, out_features=1536, bias=False)
          (c_proj): Linear(in_features=1536, out_features=512, bias=False)
        )
        (attn): GSAttention(
          (q): Linear(in_features=512, out_features=512, bias=True)
          (kv): Linear(in_features=512, out_features=1024, bias=True)
          (attn_drop): Dropout(p=0.0, inplace=False)
          (proj): Linear(in_features=512, out_features=512, bias=True)
          (proj_drop): Dropout(p=0.0, inplace=False)
        )
      )
    )
  )
  (patch_embeds): ModuleList(
    (0): MyPatchEmbed(
      (proj): Conv2d(3, 64, kernel_size=(4, 4), stride=(4, 4))
      (norm): LayerNorm((64,), eps=1e-05, elementwise_affine=True)
    )
    (1): MyPatchEmbed(
      (proj): Conv2d(64, 128, kernel_size=(2, 2), stride=(2, 2))
      (norm): LayerNorm((128,), eps=1e-05, elementwise_affine=True)
    )
    (2): MyPatchEmbed(
      (proj): Conv2d(128, 256, kernel_size=(2, 2), stride=(2, 2))
      (norm): LayerNorm((256,), eps=1e-05, elementwise_affine=True)
    )
    (3): MyPatchEmbed(
      (proj): Conv2d(256, 512, kernel_size=(2, 2), stride=(2, 2))
      (norm): LayerNorm((512,), eps=1e-05, elementwise_affine=True)
    )
  )
)
Start training for 300 epochs
Epoch: [0]  [   0/1251]  eta: 2:53:04  lr: 0.000001  loss: 6.9915 (6.9915)  time: 8.3009  data: 4.9173  max mem: 21609
Epoch: [0]  [  10/1251]  eta: 0:34:21  lr: 0.000001  loss: 7.0164 (7.0081)  time: 1.6611  data: 0.4478  max mem: 21908
Epoch: [0]  [  20/1251]  eta: 0:26:09  lr: 0.000001  loss: 7.0164 (7.0113)  time: 0.9241  data: 0.0009  max mem: 21908
…
